HW4/hw_nerf/pretrained.pth (torch, 90986 bytes, 6 tensors)

module.layer1.weight f4 [128, 39]
000000 db 90 96 3d 95 07 b2 bd df 9a 6f be 2a 5a 0c be
       0.07351848 -0.086928524 -0.23398922 -0.1370627
000010 3f 65 92 bb 3f 68 9b be 17 e5 27 3e 9c bd e9 3d
       -0.004467636 -0.3035297 0.16395985 0.11413118
000020 37 90 58 3d 4d a1 f4 bd 2f 49 cd 3d 0e 53 9c bb
       0.05287191 -0.11944828 0.10023724 -0.004770643
000030 f4 0f 87 3e 94 dc 1c 3e ae 66 ef 3d 9d b9 a8 3d
       0.2637936 0.15318519 0.116895065 0.08238528
000040 88 00 83 be 00 5e 82 be 0a b0 b8 3d 0e 29 ac be
       -0.25586343 -0.2546234 0.09017952 -0.33625072
000050 fb 5b 62 be ce 35 2b 3d 23 fd 7f bd 25 9e 00 be
       -0.221054 0.04179936 -0.06249727 -0.12560327
000060 d0 97 24 bd 82 d3 ad 3d 8c 2c b9 3d 9a 6b cf 3d
       -0.040183842 0.084876075 0.090417 0.10127945
000070 36 5a bb 3e 1c 4b f1 3d 06 71 51 3d 09 f4 88 bc
       0.36592263 0.11781904 0.05113318 -0.016717928
000080 f7 44 73 3d 51 b7 a5 bd 02 1b 2f 3c 85 8f 5e bc
       0.059391942 -0.080916055 0.0106875915 -0.013584022
000090 2a 82 ac bd 15 cf d1 39 63 b9 24 bd 4f 4a 9f 3b
       -0.08423264 0.00040017875 -0.04021586 0.004861153
0000a0 e1 fc 5c be 81 7d 83 be 3b be 0e be 0a 5e 2a be
       -0.2158084 -0.2568169 -0.13939755 -0.16637436
0000b0 21 37 49 be 0d ff 17 be dd ab 18 bf 4a 07 25 be
       -0.19649936 -0.14843388 -0.5963724 -0.16116062
0000c0 b3 a5 56 bd ab 4f a7 3e 68 06 76 be 4b 34 55 3d
       -0.052404117 0.3267797 -0.24025881 0.052051824
0000d0 f1 c3 23 bf e4 7a 63 be 1d eb 98 3d e3 8b 9e bd
       -0.6397086 -0.22214848 0.07466719 -0.07741525
0000e0 2a f2 9b 3c 53 e6 86 3e 94 e1 0b 3f 0c 35 25 bf
       0.019036371 0.26347598 0.5464108 -0.6453407
0000f0 1e 66 e3 bd 54 be ab 3e 89 68 57 3d a0 20 8f be
       -0.11103462 0.33543646 0.052589927 -0.27954578
000100 7e 1c 9a be d7 04 4d 3e 9a 27 36 be 37 7b c5 bc
       -0.30099863 0.20021378 -0.17788544 -0.024106605
000110 d4 f8 15 bf d0 ff 9e be 5e 85 b7 3e 4d 79 a5 3e
       -0.58582807 -0.31054544 0.3584394 0.32319108
000120 10 1f 29 3d 5b f2 fc bd ff 9e 91 3e b0 4e 2b 3d
       0.04128939 -0.12350913 0.28441617 0.04182309
000130 4b b5 d3 3e 68 f9 25 3e 12 8c 71 3e 2f 90 9f 3e
       0.41349253 0.16208422 0.23588589 0.3116469
000140 51 c6 bb 3c dc 82 8d 3d 8a b3 5d 3e f1 f1 7a be
       0.022921713 0.06909725 0.2165052 -0.24506356
000150 3b 24 72 be 87 09 85 be 49 b6 fb bd ed a9 16 bd
       -0.23646633 -0.2598383 -0.122906275 -0.036783148
000160 90 6d 1b 3c 53 4d 35 38 6a 06 8b be 03 a8 60 3e
       0.009486571 4.3225777e-05 -0.2715333 0.21939091
000170 95 bc 4c be 9f f6 86 bd e7 a5 03 3f 92 f0 a5 bd
       -0.19993813 -0.06590008 0.5142502 -0.08102526
000180 c2 ce 11 3e 6c 46 3d 3e 9d fa 6e 3e 9b 7e 81 be
       0.14239028 0.18483895 0.23337789 -0.25291905
000190 09 a6 1c be a5 60 95 be 4d ec e3 be 7e eb 85 3e
       -0.15297712 -0.29175296 -0.4451622 0.2615623
0001a0 11 f4 eb 3e c1 6e 33 3e c0 2f 86 bd 0d 35 27 3e
       0.46084645 0.17522718 -0.06552076 0.16328831
0001b0 77 8d 93 3e 57 47 93 3d d9 99 12 3e 15 7c 57 be
       0.28818867 0.07191341 0.143165 -0.21043427
0001c0 9f 0e a2 bd 23 9d e0 3d 53 be 04 3d ff e2 74 bd
       -0.07912945 0.109674715 0.03240807 -0.059786793
0001d0 2d 03 dd bd cb a9 4e 3e 0b 83 c2 be a4 7d 60 3e
       -0.10791621 0.20181958 -0.37990603 0.21922928
0001e0 cf 7d 8a bc 46 36 90 be 70 68 61 3e 00 64 50 be
       -0.016905693 -0.28166407 0.22012496 -0.20350647
0001f0 40 09 6f be 39 e2 1e 3e 8b 0e ac 3d 7d aa 37 3e
       -0.23343372 0.15515985 0.08401211 0.1793613
000200 f0 67 05 3e ec e6 70 be a3 28 d8 be da c9 59 be
       0.1302793 -0.2352559 -0.42218503 -0.21268407
000210 32 26 5f be d2 6e dc 3e 09 9f 7a 3e f1 d1 12 bd
       -0.21791914 0.430533 0.2447473 -0.035844747
000220 a3 91 67 3e 69 00 34 3c 79 42 8d 3d a3 ea f2 bd
       0.2261415 0.010986426 0.06897444 -0.1186116
000230 b9 94 47 3d 66 3d 5c 3e cd a2 65 3e be f3 5d be
       0.048725817 0.21507797 0.22425385 -0.21675012
000240 ed 0b 81 bd 0f 75 25 be 3a 9f 80 3e 18 c8 b4 bd
       -0.06301103 -0.16157936 0.2512148 -0.08827227
000250 41 b5 7b bd 10 10 7e bd bc 1b 9a 3d 45 10 ce be
       -0.061452154 -0.062027037 0.07524821 -0.40246788
000260 bd a1 91 3d 31 13 a7 3e 81 51 e2 bc f8 98 ee 3e
       0.07110927 0.3263183 -0.027626755 0.4660108
000270 ca 13 d0 be 85 25 15 be ff a0 65 be cb c1 8e be
       -0.40640098 -0.14565094 -0.22424696 -0.27882227
000280 c0 2c 37 bd 1a fd 80 be ad 2e c8 be 84 1f c2 be
       -0.04472041 -0.251931 -0.3909811 -0.3791467
000290 a3 8f 9c be 58 33 17 3e 7f 69 03 3e 75 c4 07 be
       -0.30578336 0.1476568 0.12833212 -0.13258536
0002a0 4b 09 d6 bd f2 7a 73 3d 90 aa 2d be 24 8a 66 3e
       -0.10450991 0.05944342 -0.16959596 0.22513634
0002b0 03 d3 ab 3e 9e 78 3d be cb 82 f4 3e ce be b6 3e
       0.33559427 -0.18503043 0.47756037 0.35692447
0002c0 fe 2b ab bd 39 02 99 be 91 34 03 3e 09 a3 ee 3c
       -0.08358 -0.29884508 0.12813021 0.029130476
0002d0 6b 7b 4b 3e dc d6 e5 bd 01 81 37 be 09 85 b2 be
       0.19871299 -0.11222622 -0.17920305 -0.34867123
0002e0 33 18 03 bf 9a 27 40 3d b4 5b ad bb 71 df 62 be
       -0.512088 0.046912767 -0.005290473 -0.22155549
0002f0 03 3d c4 3d f8 c1 3e be d5 46 27 bc 12 71 d8 bd
       0.095819496 -0.1862868 -0.010209759 -0.105684415
000300 1c 68 66 bd 20 6a 13 3e 1f 8c c8 bd 76 d4 ad 3d
       -0.05625163 0.14395952 -0.09792351 0.08487789
000310 2d 5f bf be 41 c2 3a be 5a c7 60 3a 2a b6 f9 be
       -0.373773 -0.18238164 0.00085746276 -0.48771793
000320 99 73 7f bd 28 48 b0 be 0c dd 18 be c8 4f da 3b
       -0.062366102 -0.3443005 -0.14928073 0.0066623427
000330 20 da 89 3e 56 00 49 3e c1 fb 88 be 87 ab 03 bf
       0.2692423 0.19629034 -0.26754573 -0.51433605
000340 47 0e 60 bd b1 d9 04 be 54 8b 04 3e 83 42 ce be
       -0.054701116 -0.12973668 0.12943774 -0.4028512
000350 66 87 b8 bd 67 0b d5 be 14 d2 b9 3d 5d 50 97 be
       -0.090102 -0.41610262 0.09073272 -0.295535
000360 10 ce ff 3d 86 d7 9d 3e 6e 9a a1 3e 5a a5 fe 3c
       0.12490475 0.30828494 0.31563133 0.031084705
000370 98 66 a9 3e dd 38 05 3e 73 a1 04 3e 56 ab e5 3c
       0.33086085 0.13009973 0.12952213 0.0280358
000380 2b 57 39 be 86 7d 98 3c 2d a8 ab 3d 14 67 16 3e
       -0.18099658 0.018614542 0.08381686 0.14687759
000390 09 d8 79 be 39 1f 41 bd ee 84 31 bd 59 2a 03 bf
       -0.24398817 -0.047148917 -0.043339662 -0.5123649
0003a0 cf 8b 91 bc bc bd 8a bd 29 92 a9 3d fc e6 80 3e
       -0.017766861 -0.0677447 0.08279831 0.25176227
0003b0 93 b5 fc 3d 52 df fe bd 3f 94 6b bd fa f6 22 3d
       0.1233932 -0.12444939 -0.057514425 0.039786316
0003c0 9c e4 88 be a7 5a a9 bb 88 2c 3b be 11 1e 4e bd
       -0.26736915 -0.0051682773 -0.18278706 -0.050321642
0003d0 cd 70 89 3e 3a a6 bd 3c 7c e2 54 be e4 a6 94 3e
       0.26843873 0.023150552 -0.20789522 0.29033577
0003e0 e9 aa 0d bf c6 b4 0b bc 6f 6a 9b 3e fb af d2 be
       -0.55338913 -0.008526986 0.3035464 -0.41149887
0003f0 0b b5 d0 be 73 1d 9d 3e 57 40 4c bd c2 96 8f 3e
       -0.40763125 0.3068653 -0.049866047 0.28044707

module.layer1.bias f4 [128]
000000 99 7e c4 bd 9e 38 57 be 51 0d 9d bc b8 4d 15 3e
       -0.09594459 -0.21017691 -0.019171389 0.14580429
000010 f2 c1 ad bd 29 ab 0d be bf ed 0a be 04 2d 1e be
       -0.08484258 -0.13834824 -0.13567255 -0.1544686
000020 37 18 09 be f0 44 56 3d e3 45 20 3d 45 01 25 be
       -0.13388143 0.052311838 0.03912915 -0.16113766
000030 5b 84 98 bd a1 e8 0a be e5 18 8d 3d c7 9b 8a be
       -0.0744712 -0.13565303 0.06889514 -0.27071974
000040 66 a5 09 be df 6e ec bd 25 71 2b 3c 8c 6f ad 3d
       -0.13442001 -0.115445845 0.0104639875 0.084685415
000050 a7 a1 94 be 4f e5 9b bd d4 7d 62 bd e4 58 f4 bd
       -0.2902958 -0.076120965 -0.05529578 -0.11931017
000060 7c 38 10 be 68 83 67 be a1 76 0e be 5c 37 6f bd
       -0.14084047 -0.22608721 -0.13912441 -0.058402404
000070 89 fe e6 bd 23 32 1d be e3 98 1d be 07 0a eb bc
       -0.112790175 -0.15351157 -0.15390353 -0.028691305
000080 b0 7d 39 be 8f 1d 86 bd 28 11 6f be 00 cc 62 be
       -0.18114352 -0.065486066 -0.23346388 -0.22148132
000090 0e 30 82 be 95 cd e9 bd 3f d3 2c be 90 e0 0f be
       -0.25427288 -0.11416165 -0.16877459 -0.14050508
0000a0 62 1c cd 3d a7 a1 30 bb ba a0 82 be 34 19 98 bd
       0.10015179 -0.002695182 -0.2551325 -0.07426682
0000b0 b4 57 08 3e 11 27 82 bd 14 c2 58 be 68 b0 cd bd
       0.13314706 -0.063551076 -0.21167785 -0.100434124
0000c0 47 a0 77 be d7 b4 cf 3d b5 c8 70 be 03 82 91 3d
       -0.24182235 0.10141914 -0.23514064 0.07104876
0000d0 76 a5 a3 be 39 93 3b be d6 e5 06 3b 60 f3 2e bd
       -0.31962174 -0.1831788 0.002058377 -0.04271257
0000e0 36 c4 f0 bd 26 15 ce 3c c7 b8 39 3e 12 52 98 be
       -0.11756174 0.025156569 0.18136893 -0.29750115
0000f0 0a 64 07 bf af db 0e 3b 14 3b 8c 3d e5 2e 83 bd
       -0.5288702 0.0021798422 0.06847206 -0.06405429
000100 de df 82 bd f9 d9 16 be b0 13 18 be 45 6f aa 3c
       -0.063903555 -0.14731587 -0.1485126 0.02080501
000110 7e 37 d7 bc 23 79 3b bd 0d f6 e2 bd 65 32 a0 3c
       -0.026271578 -0.04576982 -0.11082087 0.01955528
000120 e5 a3 00 3c f7 3d dd 3b 00 72 4a bd 69 85 c3 3d
       0.0078515755 0.0067517716 -0.049425125 0.0954693
000130 e7 7d 86 be 9c 59 94 3c 83 43 30 be 68 26 ab bd
       -0.2626793 0.018109135 -0.17213254 -0.08356935
000140 ec 3e 58 be dc 57 00 3e bc ca 49 be 60 55 f6 3b
       -0.21117753 0.12533516 -0.19706243 0.0075175017
000150 05 12 1f 3c 88 c8 10 be 40 44 a6 bd dc 30 9c bd
       0.009708886 -0.14138997 -0.081184864 -0.07626507
000160 c8 82 73 3c 0f 94 fb 3d 1e 66 1e bc 4d b7 f9 bd
       0.014862724 0.12284099 -0.009667901 -0.12193165
000170 d7 61 92 bd a4 8e 02 3d fa 99 2d bd 6f fe 3b be
       -0.07147568 0.031874314 -0.04238317 -0.18358777
000180 7d ae 23 be e1 06 7d be 2a f6 bc bb 9d 22 fe bc
       -0.15984531 -0.24709655 -0.0057666497 -0.031022364
000190 c7 7f 39 bc bd ef db be 93 46 2d be 79 13 a7 3c
       -0.011321968 -0.42956343 -0.16921453 0.020395027
0001a0 55 cd c1 be ae 68 11 be 97 b4 cc bc 43 84 2f be
       -0.37851968 -0.14200088 -0.024988456 -0.17140298
0001b0 f2 a7 58 bd 39 d1 20 be 4f e3 8e be e8 9a 3e be
       -0.05289454 -0.15704812 -0.27907798 -0.1861378
0001c0 a8 2c 82 be 8e 8a 84 be 91 fa 3a bd 6b 78 6e bd
       -0.25424695 -0.2588696 -0.045649115 -0.05822031
0001d0 36 2a 3e bd 74 f1 23 be 75 55 3f be 47 cb 73 be
       -0.046426974 -0.16010076 -0.18684943 -0.23808013
0001e0 5b fe 2b be 12 4b 4c 3d c8 93 d0 bc 39 12 bb bd
       -0.16796248 0.04987628 -0.025461093 -0.09134335
0001f0 61 80 f8 bb e1 2e 98 bd 5f 93 6e 3c 3c 1d ae be
       -0.0075836633 -0.074308164 0.014561503 -0.3400668

module.layer2.weight f4 [128, 128]
000000 b1 76 f5 bd a6 e1 38 3d eb c1 a4 bd 04 09 60 bd
       -0.11985529 0.04513707 -0.080447994 -0.054696098
000010 05 48 5f 3c 64 3e 6b bd c1 0c 14 3d 6e 32 e2 bd
       0.013628011 -0.057432547 0.036144976 -0.11044775
000020 c4 8e 99 bd 13 ef 8b 3c 9a 26 2a 3d 2e f0 94 3c
       -0.074979335 0.017081773 0.04154072 0.018180933
000030 83 4f 11 3d b4 73 fd bd 77 b1 b9 bd dd 2c 7e bd
       0.03547622 -0.12375584 -0.09067052 -0.062054504
000040 d0 51 d7 bc 57 23 6a bb 45 82 0c bc c4 55 38 3d
       -0.026284128 -0.003572663 -0.008575981 0.045003667
000050 8a fe dd 3c ca 9a 60 bc 5c b2 93 bd df 50 e6 3c
       0.027098913 -0.01370878 -0.07211754 0.028114734
000060 1d a7 b8 bc 58 74 d8 bd 65 c2 e8 bd 5e 97 95 bd
       -0.022540623 -0.10569066 -0.11365203 -0.073042616
000070 82 91 af bc 5b d7 be bd b1 12 9c ba df 55 2e 3d
       -0.021431688 -0.093184195 -0.0011907426 0.04256236
000080 9b 41 32 bc 33 be 2c 3d 2d ef 81 bd 7c 51 33 bb
       -0.010879899 0.042173576 -0.06344447 -0.00273618
000090 94 b7 99 bd ff fa 23 3c 6b dd ef bd b7 d7 fd 3a
       -0.07505718 0.010008573 -0.11712154 0.0019366656
0000a0 aa 8a d6 bc 19 6e 48 bd 67 14 d4 3b 6b ff 6b bd
       -0.026189167 -0.048933122 0.0064721587 -0.057616632
0000b0 58 05 39 bd 9b ab 79 bd 11 82 c1 bc 5c 4d b7 bd
       -0.04517111 -0.06095467 -0.02362159 -0.08950302
0000c0 b8 34 41 3d 81 49 55 bd dc 15 bc bd 43 b0 94 bd
       0.047169417 -0.052072052 -0.09183857 -0.07260182
0000d0 0f 3a d5 bb 1a 77 92 3c 8c 80 2c bd 81 e3 dd bc
       -0.0065071653 0.017879058 -0.04211478 -0.027086021
0000e0 01 58 29 3d 8a 3f e5 bc 38 0f c8 bd f3 b5 26 bd
       0.041343693 -0.0279844 -0.09768528 -0.040700864
0000f0 e7 77 01 be 2a c8 a4 bc 1e 20 01 3d 35 87 8c 3c
       -0.12643395 -0.020114977 0.03152477 0.017154315
000100 cf c2 7a 3c 52 dc 12 bb 71 e8 91 3b 80 66 74 bd
       0.015305235 -0.0022409153 0.004452758 -0.059668064
000110 dd e4 a8 bd 53 bc f8 bd ff 1d 62 3c f2 97 b2 bd
       -0.08246777 -0.12145295 0.013801097 -0.087203875
000120 c2 74 4e bc d9 52 9d bd 20 ba 6c bd 0b 82 d0 bc
       -0.012601079 -0.076818176 -0.05779469 -0.025452634
000130 03 47 b5 3a 23 1d f1 bd 0b 5e 57 bc 13 e0 4f bc
       0.0013830367 -0.117731355 -0.01314498 -0.012687701
000140 50 3a e9 bd f7 ea 3e bd fd 3a b9 bb b1 d8 bd 3c
       -0.11388075 -0.0466108 -0.005652784 0.023174616
000150 ce 15 4e bd ff fc 18 bb 23 36 4d bd 53 1b c4 bc
       -0.050313763 -0.0023344157 -0.050100457 -0.02393881
000160 77 47 ee bd 2b 78 a8 bd 5f f4 aa bd b5 3e 34 bd
       -0.116347246 -0.08226045 -0.08347391 -0.044005115
000170 12 96 32 3d 1c 79 9d 3b 63 16 d0 bd bb 3c e2 bd
       0.04360015 0.004805697 -0.1016052 -0.1104674
000180 8b c3 cb bd aa 04 66 bd 2d 06 05 3d 9f c5 c6 bd
       -0.09949406 -0.05615679 0.032476593 -0.09705662
000190 04 00 15 3d 72 f8 74 bd a1 e9 dd 3c 22 4f c2 bd
       0.036376968 -0.05980725 0.027088942 -0.0948775
0001a0 05 a2 3d bd 37 da c8 3c 8a 7e e6 bd 25 91 b2 bd
       -0.046297092 0.024518115 -0.11254604 -0.0871909
0001b0 a8 3a 84 3c 07 75 c1 bd 34 ab 30 bd 19 fb 14 3d
       0.01614125 -0.09446149 -0.043132022 0.036372278
0001c0 a3 a1 23 bd 53 76 55 bc 9a 68 e5 3c 5b c0 01 be
       -0.03994907 -0.013028699 0.02800398 -0.12671034
0001d0 64 00 ab 3c 6f 73 f5 bd 85 1a 69 bd 79 f2 9a bd
       0.02087421 -0.11984908 -0.056910057 -0.07565779
0001e0 4c 70 d5 bd 49 af 83 bd 62 e3 5f bd b0 63 f3 bb
       -0.104218096 -0.06429917 -0.05466021 -0.007427655
0001f0 ec 71 87 bd 43 40 ef bd 5c a2 4d bd a8 ae 5c 3c
       -0.06613526 -0.11682179 -0.050203666 0.013469376
000200 00 40 c5 3d eb 19 75 3d bc 1c 8f 3d a6 ef 4d 3e
       0.09631348 0.05983917 0.069879025 0.2011095
000210 dc e2 4b 3d 9f a0 5d 3e 27 ed 2a 3e 68 1b 68 3e
       0.049776897 0.21643303 0.16692029 0.22666705
000220 b5 79 c4 3d ed 77 2a 3e 2d 21 14 3e 9a 83 f2 3d
       0.09593526 0.1664731 0.1446578 0.11841507
000230 20 03 c8 3c c9 b1 80 3e 68 a8 4a 3e 7a ba 29 bd
       0.024415553 0.2513564 0.19790804 -0.041437604
000240 64 d7 32 3c 9c 4b 16 bc a2 ec 90 3c fb 24 c2 3d
       0.010915611 -0.0091733 0.01769096 0.0947971
000250 1e 10 7f 3d 5f 04 29 3e 40 e9 d4 bd 9c 67 7c 3e
       0.06227123 0.16505574 -0.103960514 0.24648899
000260 c2 65 0c 3e 32 fc 9e 3d c0 23 ef bd 92 56 62 be
       0.13710693 0.07762946 -0.11676741 -0.22103336
000270 ad b0 07 bd ce 8b fd 3d 66 22 ec 3d 36 94 35 3e
       -0.033127476 0.12380181 0.115299985 0.17732319
000280 ba a9 f6 be 6a 57 c8 3d c8 48 a9 3d c0 9a 2d 3e
       -0.48176366 0.09782298 0.08265835 0.16953564
000290 5a 59 1e 3a 46 e1 4c 3e 46 d6 e5 3d ad fb 3a 3e
       0.0006040536 0.2000781 0.1122251 0.18260069
0002a0 16 20 10 3d ce 98 7f 3d 92 e0 1b be 10 37 52 bd
       0.03518685 0.062401585 -0.15222386 -0.051322043
0002b0 51 85 8c 3e be f3 3c be 54 a2 ef 3d ba 8d a2 bd
       0.27445462 -0.18452355 0.117008835 -0.079371884
0002c0 31 53 92 3e 66 37 87 3e c9 51 ce 3d 5b 0c 53 3e
       0.28579095 0.26409453 0.10074193 0.20610182
0002d0 8f 44 4f 3d fc b4 29 3d 6c 7e 1b 3d be b9 35 3d
       0.050602492 0.041432366 0.037962362 0.04436659
0002e0 80 4c b2 be 45 ca 97 3d f3 07 79 3e 6d 59 bc 3d
       -0.3482399 0.07411627 0.24319439 0.09196744
0002f0 78 70 53 bd 09 a6 5d 3e 74 e2 f9 bc 9e 67 a3 3d
       -0.05162093 0.21645369 -0.03050349 0.07978748
000300 31 5d 71 3c 5e 0d ef 3c 20 fc 86 bd db 84 14 be
       0.014731691 0.029181179 -0.06591058 -0.14503805
000310 20 5f 9e 3e 59 6e 1e be 58 75 b3 3c 97 d3 dc bc
       0.3093195 -0.15471782 0.02190654 -0.026956363
000320 15 5c 18 be 33 45 b3 3e 88 61 c4 3d 8b 3c dc 3d
       -0.14878877 0.35013732 0.09588915 0.10753735
000330 59 7c 30 3c e8 78 d3 3d a1 56 69 3e 8a 81 a2 3e
       0.010771834 0.103257954 0.22786953 0.31739455
000340 be a9 77 bd e5 fb 70 3e 95 4d 1d be 60 28 6b 3e
       -0.060464613 0.2353359 -0.15361626 0.2296462
000350 83 4d 83 3e de 45 81 3d be a4 03 bd 35 ef 22 3e
       0.25645074 0.06312154 -0.032139532 0.15911563
000360 69 d3 23 3e 4f 8b 4e 3e ef cf 5e 3e 26 0b e6 bd
       0.15998615 0.2017033 0.21759008 -0.11232595
000370 f7 4d 44 3e 00 c1 73 3e a9 48 ae 3e de 4c 1e be
       0.19170366 0.23804092 0.3403981 -0.1545901
000380 3a c8 81 bd 84 67 49 bd 82 c4 75 3d d1 95 47 3e
       -0.06337018 -0.049170986 0.060001858 0.19490744
000390 bf e3 79 3e ec ea de 3d 25 0f dc bd 04 e1 6e 3d
       0.24403284 0.108846515 -0.10745076 0.05832006
0003a0 78 d6 a0 3e ec d0 98 bd e5 14 e0 bd 40 6f 2d 3e
       0.31413627 -0.07461724 -0.10941485 0.1693697
0003b0 66 7f bb 3d 14 77 af be 6f 65 67 3c e1 ad 4a 3e
       0.09155159 -0.34270537 0.014123305 0.19792892
0003c0 38 ea 8d bd 5a 12 6c bc f2 ee 5d 3e ee 2f 3f be
       -0.06929439 -0.014408672 0.21673182 -0.18670627
0003d0 e2 36 22 3e 49 dd 53 3c 24 03 8a 3e 4f 06 28 be
       0.15841249 0.012931176 0.2695552 -0.16408657
0003e0 2c c5 e0 bd 9b 12 1d 3d 44 56 ff bc 46 eb a3 3d
       -0.109751076 0.03834782 -0.031169064 0.08003859
0003f0 8a 58 19 3e 0a 31 01 3e 97 65 b6 bc 43 fb 44 3b
       0.14975181 0.12616363 -0.022265239 0.003005699

module.layer2.bias f4 [128]
000000 0d 96 93 3c b3 20 40 3d d1 ee 23 bc e6 3b 12 bd
       0.018015886 0.046906184 -0.010005669 -0.035701655
000010 73 3b 2d bd 99 65 08 be 8c b0 07 be 4a 51 6c bd
       -0.042293023 -0.13320006 -0.13250941 -0.05769471
000020 7c 11 a9 bd b4 b4 d8 3b ab e1 d8 3c be f1 8b bd
       -0.08255288 0.0066133384 0.026474794 -0.06833218
000030 46 5f 98 bd 28 90 30 bc 4a ff 11 3d 82 0d f6 3c
       -0.07440047 -0.010776557 0.035643853 0.030035738
000040 9f b3 cf 3c ec 7e a7 bd af 65 5a 3d 32 fd 07 3d
       0.025354205 -0.08178505 0.05331963 0.03320045
000050 40 67 ea bc e9 c9 d2 bd 09 23 1e 3d 96 1e 8c bb
       -0.028613687 -0.102924176 0.03860763 -0.004276107
000060 ae a1 d3 bd 5c a8 83 3c b6 44 aa bd 7f f6 92 3d
       -0.10333572 0.016071491 -0.08313887 0.07175922
000070 af fd 85 3c 55 1e 29 bd cb 8f f3 3b e0 3d a5 be
       0.016356317 -0.041288693 0.007432913 -0.3227377
000080 47 e7 88 3e 4f 8f f5 bc 91 1a 60 bd fd c0 4f bd
       0.2673895 -0.029975561 -0.054712836 -0.050721157
000090 fc 3e 1d 3e 7c 8d 0b 3e 5f e2 12 bd b7 3d 5c bc
       0.15356058 0.13628191 -0.035860416 -0.013442448
0000a0 06 52 e4 bc 67 c2 40 bc 5e d5 a5 3d ad 89 94 3a
       -0.027871143 -0.011765099 0.08097337 0.0011332534
0000b0 e6 92 bf bd 03 da f7 3c d1 ac ec bd bc 74 3f bb
       -0.093541905 0.030255323 -0.115563996 -0.0029213866
0000c0 5f cb 5a 3b 05 79 bc 3d 32 6f 74 3d 3b 02 63 bd
       0.0033385379 0.0920277 0.059676357 -0.05542205
0000d0 ec ad ad bd 7c 89 1a 3e 52 f7 b8 3b 6a 32 22 3d
       -0.084804386 0.15091509 0.0056447173 0.03959886
0000e0 bd 63 a3 3e 4f 10 fd bc ab f2 42 bd c9 4d 0c 3d
       0.31912032 -0.030891566 -0.047594707 0.03425387
0000f0 58 c6 27 3c b2 ac d4 bc 64 d7 0a 3e 6c 06 a0 bd
       0.01024016 -0.025961254 0.13558728 -0.07813725
000100 0e e9 be 3e d1 24 72 bc cc 53 72 3c ac 88 cd bc
       0.37287182 -0.0147792855 0.014790487 -0.025089584
000110 b9 94 d9 3d 43 11 ce bd ef 2d d6 3d ec c0 38 3e
       0.1062407 -0.10061886 0.1045798 0.18042344
000120 b7 01 9c bc 8d 6f 96 bd 0a d4 39 bc 82 65 24 bd
       -0.019043786 -0.073454954 -0.011342058 -0.040135868
000130 f3 fd 24 bc 2d 55 b7 bc 31 76 1e 3c 69 25 1f bd
       -0.010070312 -0.022379482 0.009671734 -0.038854036
000140 80 18 e4 3c 41 a5 55 bc 5d 86 3a bd 86 ab fc 3d
       0.027843714 -0.013039888 -0.045538295 0.12337403
000150 61 e8 9e bd ca df da 3c f4 7d 38 bd a7 bd 05 bd
       -0.077591665 0.026718039 -0.045041993 -0.03265157
000160 bf 2f 58 bd 55 9d 7f ba b8 04 7d bd 8c c1 10 3d
       -0.05277991 -0.00097509223 -0.06177208 0.03534083
000170 52 31 51 bd 4b 2e 31 3e 7c 85 13 bd 44 bc 9b 3c
       -0.051072426 0.17302816 -0.036015972 0.01901067
000180 d5 35 46 bd f7 cb 32 bd ab 8b 11 3d 4e 23 88 bd
       -0.048391182 -0.043651547 0.03553359 -0.06647359
000190 31 0e 30 bd 6b 08 0c be 32 05 fd 3c 79 55 01 bd
       -0.042982284 -0.13675086 0.030886266 -0.031575654
0001a0 cd 86 9f bb 8e 67 fb bc 03 75 bd 38 1a 47 ce bd
       -0.0048683644 -0.030689027 9.0340174e-05 -0.10072155
0001b0 26 86 71 bc f0 64 de bd eb 56 e0 bc e2 b8 e9 bd
       -0.014741456 -0.10859096 -0.027385196 -0.11412217
0001c0 30 d6 66 3d cc 43 4e 3d 05 62 91 ba fe 59 49 3d
       0.05635661 0.050357625 -0.0011091834 0.04915809
0001d0 39 cd 24 3d 1c 4c 27 bd b0 fc 81 bd 89 58 64 3d
       0.040234778 -0.040844068 -0.063470244 0.055748496
0001e0 e2 57 0c be 4d 4b cf bd e8 54 f9 bd 70 72 b3 bd
       -0.137054 -0.10121784 -0.12174398 -0.087620616
0001f0 1b 7f 00 be 1e ae 5f be 63 2a 2a bd a9 e1 1b bd
       -0.12548487 -0.21843764 -0.04154433 -0.038057003

module.layer3.weight f4 [4, 128]
000000 cc 81 28 bd 5c 04 a2 3c 7c 90 02 bd 5a 4d 86 3c
       -0.04113941 0.01977747 -0.031876072 0.016394306
000010 63 1f 4a be 6b 3f d5 bd cc 0c 88 bc 89 67 f5 3c
       -0.19738536 -0.10412487 -0.016607665 0.029956596
000020 40 ff aa bb 6b 93 40 3d 81 99 43 3d 63 be 7f 3e
       -0.0052184165 0.04701559 0.047753815 0.2497497
000030 84 85 08 be fc 89 0c bd b1 7b ab 3c f7 71 5f bd
       -0.13332182 -0.03431128 0.020933004 -0.054552045
000040 b2 d5 13 3e c9 e7 0d 3d 52 49 1b be c7 86 60 3e
       0.14436987 0.034644876 -0.15164688 0.21926413
000050 a5 92 93 3c 11 1b 87 bd 1e dc a7 bc f0 e2 ea bc
       0.018014261 -0.065969594 -0.020490702 -0.028672665
000060 7b 8c a2 bc 50 73 a2 bd a9 66 bd ba b5 7e 10 be
       -0.019842377 -0.0793215 -0.0014450151 -0.14110835
000070 76 d9 14 3d dd 1f 29 3d cf 88 e9 3c 70 8e b7 be
       0.0363402 0.041290153 0.028507618 -0.3585086
000080 af bf 92 3e 74 27 17 3d de b1 97 3b 35 d4 d0 bc
       0.28661868 0.03690286 0.0046293577 -0.025491813
000090 85 85 72 3d 29 ed 12 3e 4c 2d 2d bd cf 07 a1 bd
       0.059209365 0.14348282 -0.042279527 -0.078628175
0000a0 bb a5 94 3d a5 05 84 3c 2c ed fc 3d 1a 68 11 3d
       0.07258173 0.016115973 0.123499244 0.03549967
0000b0 c4 20 1f 3d f4 ec 87 bd 1c ff a0 3c 02 d7 3c bd
       0.038849607 -0.06636992 0.019652896 -0.046103485
0000c0 29 04 91 bd 61 b4 cf 3d e6 9c 0d be 5d a9 94 3c
       -0.070808716 0.101418264 -0.13829383 0.018147165
0000d0 7c 87 be bd df 54 45 3d 73 4e 8c bd 11 50 35 bd
       -0.09303185 0.048176643 -0.068509005 -0.04426581
0000e0 12 e0 99 3e 94 b9 76 bd 84 35 97 be 64 0e 28 bc
       0.30053765 -0.060235575 -0.29533017 -0.010257337
0000f0 2a 41 ec 3b 2f 40 96 bb bf d1 e4 3d 91 f9 a5 bd
       0.0072099166 -0.004585288 0.111728184 -0.08104242
000100 81 99 2a 3f 05 c7 0a be f1 e0 46 3d 1c 36 9d 3d
       0.6664048 -0.13552482 0.048554365 0.07676336
000110 8c fd 38 3d d4 35 e8 bd ab 00 1b 3d 67 2f 7c 3d
       0.045163676 -0.11338392 0.037842434 0.061568644
000120 e4 87 7a bd 5b 49 6d be 8b b8 26 3d ef fc 88 bd
       -0.06116475 -0.23172514 0.040703338 -0.06688868
000130 2e 64 bf 3c 83 7e 22 bd 8e d5 95 3d a6 4f 5d 3b
       0.0233632 -0.039671432 0.07316123 0.0033769398
000140 cb 27 99 bc 4e d0 b6 bc bb 95 6c bd 0d 29 a0 bd
       -0.018695733 -0.022316124 -0.05775998 -0.0782033
000150 3d 7c e1 3d c9 cc ec 3c 4c f1 b3 bd 25 82 bb bd
       0.11010025 0.028906243 -0.08786258 -0.091556825
000160 b6 a4 6d 3d 85 2d 95 bc 44 cc 93 be ef d9 52 ba
       0.05801841 -0.018210182 -0.2886678 -0.0008043339
000170 06 69 5a bd 99 97 7f 3d 79 3a 60 bc d4 a5 fb 3c
       -0.053322814 0.062400434 -0.013685816 0.030718721
000180 e2 9e 85 3d 64 26 32 bd 40 c6 b9 bd 8c 39 93 bc
       0.06524445 -0.043493643 -0.09071016 -0.017971776
000190 a2 13 02 be c2 f7 0b be f4 01 07 3d 35 45 ea bd
       -0.12702802 -0.13668731 0.032960847 -0.114389814
0001a0 6c 0a 99 3c 61 b1 c8 be 28 2d 83 bb 5b 9a ad 3c
       0.018681727 -0.3919783 -0.004003186 0.021191766
0001b0 eb 6f 06 3d bf e6 2d 3c c3 72 33 be 97 ff e6 3c
       0.032821577 0.010614096 -0.17524247 0.028198047
0001c0 a1 00 d9 3c a7 7f 39 3d cd 94 ee bd 10 b6 84 bc
       0.026489558 0.045287754 -0.11649475 -0.016200095
0001d0 a7 4e fa bb a2 f5 65 bd de 4c 35 bd 63 71 95 3c
       -0.0076387706 -0.056142457 -0.04426276 0.018242544
0001e0 83 68 e4 bd 9b f8 4b bd b3 fb 9a 3b 90 25 88 bd
       -0.111527465 -0.049797636 0.004729712 -0.066477895
0001f0 23 9d 19 bd 59 fb 12 be bb 20 d5 3c b7 01 e6 3c
       -0.037503373 -0.14353694 0.026016584 0.02807699
000200 ab 00 81 bd a7 92 0f bd b3 8b 15 3d ed a5 71 bc
       -0.062989555 -0.035051968 0.03651018 -0.014749032
000210 e0 5c ff bd 3a c5 df 3c ed 85 a6 bd 8d 54 01 be
       -0.124688864 0.027315725 -0.08131013 -0.1262991
000220 3b 6e ae bc e8 de 2a bd 22 43 12 bd 0c 1d c5 bd
       -0.021292796 -0.041716486 -0.035708554 -0.09624681
000230 2b 50 9f bd 0e 4d 6f bd 08 29 24 3d ed 1c 88 bd
       -0.07778963 -0.058423094 0.040078193 -0.06646142
000240 1a fe 99 bd 91 89 31 bc 19 13 d6 bd d2 12 a7 be
       -0.07519169 -0.010836021 -0.10452861 -0.32631546
000250 42 cf 00 be ec ee 4d 3d ba 1b 63 3d 37 2b 3d 3c
       -0.12579063 0.05027668 0.055446364 0.011545948
000260 ee 85 fe 3c ba d2 08 3b d4 15 6d bd 7c b0 f8 bd
       0.031069722 0.0020877556 -0.057882145 -0.12143037
000270 c0 42 92 3c b5 9e f7 3b c0 6a 16 3d 6d 92 bb be
       0.017854095 0.007556761 0.0367229 -0.36635152
000280 dc 93 a4 3e e8 5f a0 bd 16 9a a7 3d 3d 17 45 be
       0.32144058 -0.07830793 0.081836864 -0.19247146
000290 9f 33 94 3d da 21 b1 3d 09 6d 96 bd 31 5a ed bc
       0.072364084 0.08649035 -0.073450156 -0.02897367
0002a0 59 1f 45 bd 9b 67 05 bd 4c b9 ab bd a7 17 92 bd
       -0.0481256 -0.03256951 -0.08384952 -0.071334176
0002b0 b8 fc a6 bd 43 64 c3 bd 22 cf 9e bd fc b6 c1 bc
       -0.08153671 -0.09540608 -0.07754351 -0.023646824
0002c0 33 be b4 3c b9 00 9d 3b 9f 8c 36 be e2 93 93 bd
       0.02206335 0.004791346 -0.1782708 -0.07205941
0002d0 ad fc 68 3d c2 50 0b 3c da 17 9e bc 5a c2 fc bd
       0.056881595 0.008503141 -0.019298483 -0.12341757
0002e0 e5 43 15 3e 20 a4 0d bd be 07 7b be 72 ee cf ba
       0.14576681 -0.03458035 -0.24514672 -0.0015863909
0002f0 a7 53 3b 3b 06 60 9f bd 92 1e 86 bb c2 29 1f 3d
       0.0028583796 -0.07781987 -0.0040929997 0.038858183
000300 05 94 9a 3e f0 67 10 be 27 f0 ab bd a0 06 40 bd
       0.30191055 -0.14102149 -0.08395415 -0.046881318
000310 6a 52 3f bc f4 e5 5c bc 6c 5f 56 3d 23 b4 d2 3d
       -0.011677364 -0.0134825595 0.052337095 0.102882646
000320 ee ab 37 be 0e c2 52 be e7 d4 d0 bc 11 7c 67 bb
       -0.1793668 -0.20581838 -0.025492145 -0.0035321752
000330 df 4e 9f bd cc bd 5e 3c 75 ad 7d bd 27 5c fe bd
       -0.07778715 0.013595056 -0.061933 -0.124199204
000340 7a da dc bc 81 b9 02 bd cb 71 4e 3c 9b 73 62 3c
       -0.026959646 -0.03191519 0.012600373 0.013821508
000350 cb 5f bd 39 31 46 21 bd e7 0a 11 3d 59 ed 74 3d
       0.0003612026 -0.03937358 0.035410788 0.059796665
000360 5e 66 ac bc 49 db 1a bd 1c d5 8a be 10 24 6d bd
       -0.021044906 -0.037806783 -0.27115715 -0.05789572
000370 cd d1 28 bd e5 57 60 3d 4c f8 7e bc 17 c6 38 3c
       -0.041215707 0.054771323 -0.015562128 0.011277697
000380 a1 96 2f bd 2b 0f b3 3c db 4d 7d bb 07 59 2b 3c
       -0.04286826 0.021857819 -0.0038651142 0.0104582375
000390 4f 5b 0b 3c c8 2d 9d bd 57 11 70 bb 55 f9 1a 3d
       0.008505656 -0.07674748 -0.003663143 0.037835438
0003a0 ae 6f 84 bd 71 50 8b be 8d 0a db 3c 8a 48 e8 bb
       -0.06466614 -0.2720981 0.02673843 -0.0070887255
0003b0 ff 3b 58 3c b9 bb a1 bd 93 b2 5b bf 04 5c 06 be
       0.013197898 -0.078971334 -0.8581936 -0.13121039
0003c0 76 4a 06 be b0 de ad bd 86 5f 60 bc d4 c2 73 bc
       -0.13114342 -0.0848974 -0.01369465 -0.014877994
0003d0 b4 26 6d 3d 87 0d 8e bd 08 5a 09 bd 75 2b 23 3d
       0.05789824 -0.06936174 -0.033533126 0.039836366
0003e0 e7 36 00 be 1a 6c 2e bd cd 3a eb bb e0 fa c5 3b
       -0.12520944 -0.042583562 -0.0071786405 0.0060418695
0003f0 ab bf 28 bd 6c 18 77 bd 40 d8 01 bd b4 48 2e 3d
       -0.041198414 -0.060326025 -0.031700373 0.042549804

module.layer3.bias f4 [4]
000000 5f 7b 29 3d 65 f8 8a 3d 6a cc 21 3d 24 93 8f 3d
       0.04137742 0.06785659 0.039501585 0.07010487
